sumo/on_ramp/discriminator.pth (torch, 789598 bytes, 15 tensors)

traffic_conv.0.weight f4 [32, 3, 3, 3, 3]
-0.06608514 -0.108875506 -0.10204882 0.08834056 0.050651062 0.042882495 -0.024010632 0.084874004
0.011124545 0.040510945 0.105433404 0.077685066 -0.028374221 -0.026092172 0.023885569 -0.04954223
0.08616578 -0.0070337057 0.0052958066 0.09254419 0.032428782 0.010333048 -0.09800374 -0.021534272
0.0699774 -0.07987224 0.029954566 0.09878758 -0.05035655 0.0859066 0.10948483 -0.09758612
0.08218373 -0.08318118 0.107461266 -0.09681061 -0.10454692 -0.003088519 -0.06547228 0.07112082
0.06889187 -0.0071635777 -0.03867747 -0.09004006 0.04524235 0.061600856 0.052556105 0.109727845
-0.04092925 -0.05694537 0.08082926 0.06082356 -0.025408203 -0.058997657 -0.072322346 0.060868084
0.099334374 -0.10833249 -0.025367914 0.06485093 -0.01650189 -0.024109324 -0.06060693 -0.08063791
-0.08489349 0.09063113 -0.036401656 0.016966047 0.11089669 0.045223925 0.059337612 0.064380065
-0.0064091817 0.0019004445 -0.07255966 -0.0065748827 -0.044887792 0.06527808 -0.043599553 0.102147564
-0.108965196 0.06616288 0.06890306 -0.020531058 0.03491624 -0.026100254 -0.018729368 -0.08144169
-0.1102458 -0.04560496 0.10694459 0.07676322 0.077121034 0.018302402 -0.031741783 0.11070483
-0.023929318 -0.07247462 -0.056226943 0.10746278 -0.03923968 0.09152729 0.013459113 -0.030570623
-0.027028415 0.09976906 -0.06030774 0.056522954 -0.0789517 -0.095862426 -0.019899514 0.037579246
-0.103104874 -0.00080829195 0.06134539 0.06018376 0.09296097 -0.09951511 -0.06979577 0.090703994
-0.062606946 -0.015154386 -0.022835003 0.040834136 -0.006896505 0.01571438 0.0094005 -0.014383881
0.03119013 -0.081507765 0.05338727 0.064938135 -0.045754023 0.003656268 0.08559913 0.0019097461
0.09757961 0.066560455 -0.10567725 -0.038150012 0.105061136 0.076232105 -0.019441303 0.051710527
-0.10991505 -0.11028167 0.00535716 -0.07087951 -0.10791813 -0.0058272546 -0.02107264 0.10177613
-0.08913961 0.07851044 0.09486481 -0.018001027 0.022445811 -0.009776718 -0.085695624 -0.04893743
0.084366634 -0.07770097 0.07840618 0.027321737 0.012724519 0.028232826 -0.08737347 0.042846493
-0.038743097 -0.09930228 0.09378605 -0.0094401045 -0.06838677 0.067827836 -0.0136909755 -0.06856317
0.058056526 -0.051272195 0.06369155 -0.11044979 0.040144246 0.09955991 -0.10956281 -0.0020116435
-0.052304875 -0.0865878 0.07095519 0.058891796 0.08810637 0.029656703 0.049062923 0.014643629
0.0064657796 0.048219446 -0.037508223 0.08396252 0.07507585 -0.084143735 0.0630781 -0.08255586
0.10078471 -0.086070165 -0.031946573 -0.01792101 0.04604589 -0.09688173 -0.097566366 0.103053674
-0.092711225 -0.099052295 0.07156682 -0.048749004 0.011233794 0.041497428 -0.061294314 -0.052834526
-0.068905436 0.014178681 0.08263872 -0.08193772 -0.012508293 0.08665243 0.043434303 0.042686693
-0.014931321 0.10561107 0.048679754 -0.06276752 0.08484998 0.059117783 0.091999 0.08753252
-0.09755187 0.020030076 0.035901904 -0.07834871 0.05118594 -0.024587924 -0.071878895 -0.10448519
0.08404473 -0.086491086 -0.046111226 0.021298395 0.048872545 -0.078104205 -0.024325809 0.060767647
-0.066963844 0.015066372 -0.093517415 0.007856515 -0.086353526 -0.087295935 -0.0492148 0.07644203
00000000: a557 87bd 1ffa debd f9fe d0bd e5eb b43d
00000010: 7d77 4f3d 8ea5 2f3d f2b1 c4bc 6cd2 ad3d
00000020: b943 363c ceee 253d 78ed d73d 5919 9f3d
00000030: 0e71 e8bc 40bf d5bc abab c33c cbec 4abd
00000040: af77 b03d 007b e6bb 7288 ad3b cf87 bd3d
00000050: 0bd4 043d f24b 293c 2fb6 c8bd a468 b0bc
00000060: 5050 8f3d 0f94 a3bd 4763 f53c 2551 ca3d
00000070: ab42 4ebd cdef af3d 9539 e03d 3bdb c7bd
00000080: f24f a83d e55a aabd a714 dc3d a444 c6bd
00000090: b21c d6bd c068 4abb 5516 86bd cba7 913d
000000a0: 2e17 8d3d 72bc eabb 446c 1ebd ec66 b8bd
000000b0: 0b50 393d 2e51 7c3d 1245 573d feb8 e03d
000000c0: 6ea5 27bd 8c3f 69bd d089 a53d 2022 793d
000000d0: dd24 d0bc 87a7 71bd bd1d 94bd d050 793d
000000e0: d26f cb3d 6ddd ddbd 5fd0 cfbc 90d0 843d
000000f0: f92e 87bc eb80 c5bc f93e 78bd 7d25 a5bd
00000100: a3dc adbd d09c b93d e719 15bd 61fc 8a3c
00000110: ce1d e33d b93c 393d ff0b 733d b2d9 833d
00000120: 1d04 d2bb 5618 f93a 299a 94bd 1d72 d7bb
00000130: 43dc 37bd 84b0 853d 7295 32bd be32 d13d
00000140: 2529 dfbd 6780 873d 0c1d 8d3d c030 a8bc
00000150: 5504 0f3d 33d0 d5bc 556e 99bc e7ca a6bd
00000160: 8dc8 e1bd 44cc 3abd c405 db3d 0936 9d3d
00000170: a2f1 9d3d ebee 953c ac03 02bd 37b9 e23d
00000180: 6b07 c4bc 936d 94bd 394e 66bd 7215 dc3d
00000190: c9b9 20bd a972 bb3d 9d83 5c3c 3e6f fabc
000001a0: b26a ddbc b953 cc3d 4005 77bd 9d84 673d
000001b0: 6eb1 a1bd 8553 c4bd 4e04 a3bc b2ec 193d
000001c0: a628 d3bd 8ee3 53ba 4e45 7b3d 3f83 763d
000001d0: 5262 be3d 94ce cbbd 16f1 8ebd 04c3 b93d
000001e0: 1238 80bd 1a4a 78bc 7910 bbbc b241 273d
000001f0: 14fc e1bb 72bb 803c 8e04 1a3c 5faa 6bbc
00000200: 7282 ff3c 8bed a6bd 9cac 5a3d 49fe 843d
00000210: 9268 3bbd ff9d 6f3b 994e af3d 7250 fa3a
00000220: d2d7 c73d d950 883d 506d d8bd 3043 1cbd
00000230: 4b2a d73d 941f 9c3d 5e43 9fbc 6bce 533d
00000240: 241b e1bd 5bdb e1bd 1d8b af3b 4729 91bd
00000250: 2e04 ddbd 8ef2 bebb 87a0 acbc 0170 d03d
00000260: d48e b6bd 15ca a03d 7b48 c23d e476 93bc
00000270: 47e0 b73c 872e 20bc 3081 afbd 9d72 48bd
00000280: 6ac8 ac3d b021 9fbd 6b93 a03d d6d1 df3c
00000290: 807a 503c 8748 e73c ddf0 b2bd ce7f 2f3d
000002a0: 15b1 1ebd fe5e cbbd e712 c03d abaa 1abc
000002b0: 5d0e 8cbd 52e9 8a3d 1d50 60bc d96a 8cbd
000002c0: aecc 6d3d cb02 52bd b770 823d 8033 e2bd
000002d0: 4b6e 243d 11e6 cb3d 7762 e0bd c7d5 03bb
000002e0: a33d 56bd f254 b1bd f450 913d 8638 713d
000002f0: 1d71 b43d 9df2 f23c 34f6 483d d5eb 6f3c
00000300: e4de d33b c181 453d 39a2 19bd 8bf4 ab3d
00000310: 5ec1 993d 8d53 acbd 172f 813d 0c13 a9bd
00000320: 3768 ce3d 8e45 b0bd 69da 02bd 15cf 92bc
00000330: 9d9a 3c3d ee69 c6bd e0d0 c7bd ce0d d33d
00000340: 62df bdbd eedb cabd a091 923d 09ad 47bd
00000350: f20d 383c 35f9 293d bf0f 7bbd 0469 58bd
00000360: 4b1e 8dbd b34d 683c 7d3e a93d f7ce a7bd
00000370: 95ef 4cbc d476 b13d 2be8 313d 3ed8 2e3d
00000380: 80a2 74bc 9e4a d83d 6c64 473d 428c 80bd
00000390: d4c5 ad3d 7d25 723d f969 bc3d 4044 b33d
000003a0: 46c9 c7bd 1d16 a43c e00d 133d 4a75 a0bd
000003b0: 59a8 513d 9d6c c9bc 3e35 93bd 55fc d5bd
000003c0: a51f ac3d 3d22 b1bd 20df 3cbd f979 ae3c
000003d0: 942e 483d 19f5 9fbd eb46 c7bc 7fe7 783d
000003e0: 5724 89bd f2d8 763c 0f86 bfbd 9db8 003c
000003f0: 1eda b0bd 36c8 b2bd 7595 49bd a48d 9c3d

traffic_conv.0.bias f4 [32]
0.0008019211 -0.022601597 -0.087797105 -0.10213392 0.03717443 -0.024980921 0.053985234 0.06242064
-0.06474031 0.060854398 -0.087722346 -0.08076052 -0.07757665 0.04819949 -0.0075661493 0.10897382
-0.020981304 0.10067378 -0.085556135 -0.06777115 -0.046953328 -0.09026817 -0.09296404 -0.060990483
-0.03284096 -0.0956957 -0.044106215 0.015894063 0.022960188 0.07068034 0.09610048 -0.044396292
00000000: 0438 523a fc26 b9bc f8ce b3bd 972b d1bd
00000010: 3744 183d caa4 ccbc 9f1f 5d3d c9ac 7f3d
00000020: 9196 84bd 7642 793d c6a7 b3bd c665 a5bd
00000030: 82e0 9ebd d46c 453d 76ed f7bb ab2d df3d
00000040: fce0 abbc 0e2e ce3d 0e38 afbd 9acb 8abd
00000050: 2252 40bd 85de b8bd ee63 bebd 28d1 79bd
00000060: 3e84 06bd 1bfc c3bd b8a8 34bd 4434 823c
00000070: 0117 bc3c dbc0 903d 54d0 c43d e3d8 35bd

traffic_conv.3.weight f4 [64, 32, 3, 3, 3]
0.011791675 0.015899958 0.0038627477 -0.022374028 -0.024215559 -0.0065995604 0.02993065 0.0041086813
0.010775334 0.0058609294 0.014635343 -0.00076019054 0.010841083 -0.012367365 0.03293106 -0.017424518
-0.012077109 0.004202277 -0.02010803 0.0052761063 0.0008325543 -0.017838525 0.008597983 -0.00023798565
-0.015764778 -0.025618473 -0.0220918 -0.017347503 -0.016365942 -0.018146992 -0.026557524 -0.00478751
-0.021131082 -0.008529267 -0.014349813 -0.022845766 -0.014927832 0.0015671586 -0.010754115 -0.00952323
0.012156286 -0.00047840056 0.02996882 0.023896132 0.029754316 0.0134566985 -0.006050513 -0.0090838475
0.032968156 0.014002775 0.02464627 0.02858669 -0.01183038 0.022005502 0.012607443 0.00074746145
0.0034123024 0.0019518627 -0.01181705 0.0009113259 -0.009994197 -0.024875648 -0.029122777 0.027162993
-0.010804845 0.0031820505 -0.0011270464 -0.026196137 -0.03235942 0.028775474 -0.0077121663 -0.027239129
-0.0042359587 -0.028829109 -0.019441044 0.027861405 -0.026205443 0.013939552 -0.015267529 0.02648261
-0.005530018 -0.025124371 -0.0030650627 -0.017969357 0.02762123 0.023163417 0.033670843 0.016805742
0.012128435 -0.03287238 0.029463276 -0.02770149 -0.024816256 0.008870731 0.03162707 0.018834133
0.03045036 -0.010141542 0.019125758 0.007828742 -0.021263136 -0.031876385 -0.024111655 -0.014464819
0.022454876 -0.026516218 -0.009083334 0.0106507875 0.02533846 -0.012790563 0.0020621745 0.010553883
-0.021808926 -0.029877145 -0.02156184 -0.0041417186 0.027340276 0.013645157 0.016822929 -0.028650237
-0.029884504 0.024740068 0.014339607 -0.017814783 -0.001304164 -0.012239525 -0.015505011 0.004701497
-0.016292699 0.028813645 0.028803334 -0.0043732887 0.022088993 0.0186832 -0.031489067 0.031625915
-0.017116148 0.023657223 0.014401893 0.029414482 0.010360225 0.012975967 0.0055733733 -0.008174274
0.0021676074 0.0004909121 -0.031656686 0.02294166 0.012340743 -0.0023702648 0.016658947 0.029029084
0.02370975 -0.006438931 -0.016486146 -0.030142497 -0.007109903 -0.017326234 -0.0030733084 0.0046281214
-0.030217981 -0.016012324 -0.007726286 0.016131809 -0.0015107248 0.021351235 0.011268029 -0.013227437
0.01659452 0.010336301 0.02761093 0.028739335 0.021639138 -0.019394457 0.026139721 -0.021741543
0.00628683 0.009980233 0.02421126 0.032948125 -0.030805312 -0.03387299 -0.020040113 -0.019295411
0.024072468 -0.015681814 0.02070623 -0.029583609 0.03032055 -0.021335471 -0.017460577 0.0015343404
-0.011917884 -0.01922145 0.015057421 -0.003069127 0.021259122 0.0069236015 -0.025519535 0.008765669
0.031035637 0.028071335 -0.01947091 0.004649182 0.023181252 0.031268544 -0.033880442 0.013957494
-0.009041597 0.030699993 0.027734414 0.022811696 -0.010076594 -0.019336913 0.0006485713 -0.017799655
-0.019899767 0.0033982897 -0.021882722 0.007278643 0.0007447942 0.0076185293 -0.02067922 -0.028998684
-0.029871231 0.013712383 0.032893077 -0.011835346 -0.0059545683 -0.012495966 0.019531462 0.028837973
0.014918483 -0.010923715 -0.017418638 -0.028437667 -0.01651237 0.02715165 0.029277384 -0.014800277
0.00030946528 -0.0017617523 -0.030520469 0.015413744 -0.011050685 -0.016746644 0.018472565 -0.030359058
0.022742568 -0.022346016 0.019218624 0.02364287 0.031423252 0.015381808 -0.033872616 0.015895206
00000000: df31 413c a140 823c 2726 7d3b bd49 b7bc
00000010: b55f c6bc 2041 d8bb 1f31 f53c 1ea2 863b
00000020: 078b 303c 0a0d c03b 14c9 6f3c 8647 47ba
00000030: cc9e 313c 7da0 4abc b8e2 063d ddbd 8ebc
00000040: 11df 45bc 41b3 893b 98b9 a4bc 30e3 ac3b
00000050: c63f 5a3a 1922 92bc 8ede 0c3c c98b 79b9
00000060: 2325 81bc d5dd d1bc ddf9 b4bc 5a1c 8ebc
00000070: de11 86bc 00a9 94bc 2a8f d9bc 8be0 9cbb
00000080: 171b adbc 57be 0bbc 7a1b 6bbc 0b27 bbbc
00000090: de93 74bc 1e69 cd3a 0732 30bc 5207 1cbc
000000a0: 292b 473c d6d1 fab9 2c81 f53c d2c1 c33c
000000b0: 53bf f33c 7c79 5c3c 6243 c6bb 6bd4 14bc
000000c0: 9e09 073d e56b 653c f9e6 c93c a22e ea3c
000000d0: 36d4 41bc e244 b43c 738f 4e3c 4af1 433a
000000e0: efa0 5f3b a5d5 ff3a 4d9c 41bc 0ce6 6e3a
000000f0: b3be 23bc 04c8 cbbc e492 eebc ed84 de3c
00000100: ce06 31bc f389 503b 67b9 93ba 4899 d6bc
00000110: 508b 04bd 8bba eb3c 57b6 fcbb 9824 dfbc
00000120: cccd 8abb 062b ecbc d342 9fbc 9a3d e43c
00000130: ccac d6bc b862 643c a824 7abc 0ff2 d83c
00000140: 2735 b5bb a0d1 cdbc 38df 48bb 7934 93bc
00000150: eb45 e23c 35c1 bd3c 70ea 093d 32ac 893c
00000160: 58b6 463c 30a5 06bd f85c f13c 3cee e2bc
00000170: 764b cbbc 8b56 113c 638b 013d 0a4a 9a3c
00000180: 0973 f93c b628 26bc 9fad 9c3c 2044 003c
00000190: 0730 aebc d090 02bd ce85 c5bc d9fd 6cbc
000001a0: 4af3 b73c 8a38 d9bc 44d2 14bc a480 2e3c
000001b0: 9a92 cf3c 828f 51bc 8c25 073b 32ea 2c3c
000001c0: a2a8 b2bc eac0 f4bc 75a2 b0bc 41b7 87bb
000001d0: b7f8 df3c f08f 5f3c 3dd0 893c e7b3 eabc
000001e0: 59d0 f4bc afab ca3c acf0 6a3c 4ff0 91bc
000001f0: 7bf0 aaba 4a88 48bc bb08 7ebc 040f 9a3b
00000200: 4478 85bc 980a ec3c f8f4 eb3c ce4d 8fbb
00000210: faf3 b43c 830d 993c aefa 00bd 2d8a 013d
00000220: 2a37 8cbc cbcc c13c ebf5 6b3c a4f6 f03c
00000230: efbd 293c 2699 543c d8a0 b63b 64ed 05bc
00000240: 6b0e 0e3b 8eb0 003a 71aa 01bd 26f0 bb3c
00000250: d430 4a3c 7256 1bbb 5878 883c 67ce ed3c
00000260: f33a c23c abfd d2bb f40d 87bc 66ed f6bc
00000270: 30fa e8bb bfef 8dbc 8f69 49bb 7fa7 973b
00000280: b38b f7bc 472c 83bc c92c fdbb db26 843c
00000290: 8303 c6ba c9e8 ae3c 8a9d 383c e4b7 58bc
000002a0: 3bf1 873c 9759 293c 5130 e23c c16e eb3c
000002b0: 9044 b13c 20e1 9ebc f822 d63c 521b b2bc
000002c0: c101 ce3b 2284 233c b156 c63c 9df4 063d
000002d0: 6c5b fcbc 68be 0abd 2a2b a4bc 6911 9ebc
000002e0: a033 c53c 2677 80bc 1da0 a93c 5359 f2bc
000002f0: cd62 f83c bac7 aebc 7c09 8fbc ec1b c93a
00000300: 3b43 43bc 4d76 9dbc 67b3 763c 6823 49bb
00000310: 9c27 ae3c 61df e23b 580e d1bc e19d 0f3c
00000320: 733e fe3c dbf5 e53c 7581 9fbc 2a58 983b
00000330: 9ce6 bd3c 7213 003d 38c6 0abd f9ad 643c
00000340: 3523 14bc 8d7e fb3c 4833 e33c 98df ba3c
00000350: 4c18 25bc 7268 9ebc e204 2a3a 95d0 91bc
00000360: d604 a3bc d7b5 5e3b 6543 b3bc af81 ee3b
00000370: 4b3e 433a dba4 f93b 7867 a9bc a68e edbc
00000380: 83b4 f4bc e7a9 603c e4ba 063d 0ae9 41bc
00000390: 8a1e c3bb e1bb 4cbc 7200 a03c 9d3d ec3c
000003a0: a76c 743c 62f9 32bc 88b1 8ebc 1cf6 e8bc
000003b0: f344 87bc 236d de3c 20d7 ef3c dc7c 72bc
000003c0: ba3f a239 99ea e6ba 1006 fabc ee89 7c3c
000003d0: ef0d 35bc 4230 89bc c753 973c 8fb3 f8bc
000003e0: 9f4e ba3c fe0e b7bc 6070 9d3c b1ae c13c
000003f0: abb5 003d fb03 7c3c 03be 0abd aa36 823c

traffic_conv.3.bias f4 [64]
-0.012675022 0.034872305 0.015914872 -0.034696773 0.0069911187 -0.013390474 0.023182927 0.004107863
0.03219932 -0.009555782 -0.01912666 0.0072897025 -0.010906462 0.013224138 -0.004645686 -0.007642175
0.0017691698 -0.0018459783 0.026454408 0.016051488 -0.009788342 -0.02702562 0.024060838 0.008877532
0.012178114 0.017591009 0.017512858 -0.0067055295 0.030840462 0.016605007 -0.024519937 -0.021764044
-0.011074067 -0.014904963 0.021818971 0.0040927404 -0.021178761 -0.0015168939 -0.025669552 0.03209554
0.0058870004 -0.018593522 0.008525263 -0.019274341 0.00977231 0.007809558 -0.023955999 0.016780019
-0.011559801 0.016150294 0.008298499 -0.016201332 -0.0056357435 -0.0008754377 -0.012896814 0.019149834
-0.007187275 0.0085203815 0.005890802 0.002382893 0.020751622 -0.016809031 -0.009605705 -0.026677072
00000000: e5aa 4fbc 43d6 0e3d e85f 823c 341e 0ebd
00000010: c115 e53b b863 5bbc 1fea bd3c 419b 863b
00000020: 6fe3 033d db8f 1cbc 83af 9cbc 75de ee3b
00000030: 04b1 32bc 0eaa 583c d73a 98bb 366b fabb
00000040: 7de3 e73a c1f4 f1ba eab6 d83c 697e 833c
00000050: 485f 20bc d564 ddbc 3c1b c53c 1173 113c
00000060: b686 473c 051b 903c 2077 8f3c 0fba dbbb
00000070: 23a5 fc3c 3907 883c 09de c8bc 824a b2bc
00000080: 0170 35bc f233 74bc b3bd b23c 651c 863b
00000090: 157f adbc 83d2 c6ba f448 d2bc 9d76 033d
000000a0: bde7 c03b 7151 98bc 8bad 0b3c 39e5 9dbc
000000b0: 0a1c 203c 52e7 ff3b 5f3f c4bc 4076 893c
000000c0: 5265 3dbc 9f4d 843c 6df6 073c a8b8 84bc
000000d0: 0bac b8bb a17d 65ba 294d 53bc 1de0 9c3c
000000e0: 3c83 ebbb 1299 0b3c a107 c13b 502a 1c3b
000000f0: 4eff a93c 18b3 89bc 3f61 1dbc e089 dabc

od_conv.0.bias f4 [32]
-0.24156833 0.28738615 0.22764324 -0.21333183 -0.08822983 -0.15725061 -0.10230169 0.34743053
-0.3151678 -0.37054634 -0.08083531 -0.012014944 -0.14225686 0.3669465 0.048767682 0.32214797
-0.27506727 0.051305138 -0.3561696 0.1641772 -0.39488682 -0.33611035 0.20251332 0.38041565
0.31324202 0.18796167 0.40590975 -0.034242667 -0.36191222 -0.25832126 -0.03068097 0.1807345
00000000: b05d 77be 4724 933e 4f1b 693e a973 5abe
00000010: d7b1 b4bd 4e06 21be 8c83 d1bd 6ae2 b13e
00000020: ad5d a1be 40b8 bdbe fc8c a5bd 54da 44bc
00000030: c8ab 11be 69e0 bb3e 9fc0 473d 94f0 a43e
00000040: 9ed5 8cbe 5625 523d dd5b b6be 111e 283e
00000050: 9b2e cabe a816 acbe a75f 4f3e d7c5 c23e
00000060: 4261 a03e 0679 403e 67d3 cf3e 0a42 0cbd
00000070: 8f4c b9be af42 84be a856 fbbc 7712 393e

od_conv.0.weight_orig f4 [32, 2, 3]
0.30242002 -0.17052634 -0.045652214 0.27978215 -0.063296184 -0.2112656 0.04244524 -0.16423224
-0.0029688003 -0.338363 0.34394753 0.21569464 -0.32042226 -0.35372302 -0.10977686 0.15855393
0.30919445 0.30313486 0.30911893 0.17907988 0.39090103 -0.30512667 0.15566285 0.17289864
-0.28225645 0.014501336 0.09011097 0.32067227 0.018492717 -0.20199902 -0.3302394 0.39568695
-0.39156815 0.06892832 -0.24914142 0.058241688 -0.042915586 -0.33553472 -0.3816528 0.13364048
-0.14768283 0.073705025 -0.07089758 0.3499723 -0.3856468 -0.30149287 -0.22352947 -0.1569601
-0.37396565 0.34045476 0.25367746 0.3212786 -0.31006357 -0.2832902 0.3467385 -0.13815004
0.3716935 0.13590117 0.0752533 0.23113428 0.28180084 -0.3186458 0.3086475 0.37969935
0.17282887 0.26929408 0.3199235 -0.24581759 -0.38159928 -0.3209786 0.2634006 0.21103998
0.36745703 -0.22791348 0.09545865 0.21203482 -0.024632692 0.06535042 -0.15268436 0.017509844
-0.09791271 0.29518843 -0.046394505 0.056720596 -0.34916544 -0.05068972 -0.20630407 -0.3964733
0.061846457 -0.22785285 0.19085817 -0.37774 0.013276892 -0.032656547 0.21530658 0.010124488
-0.3042091 -0.00041508186 -0.29302529 -0.2353423 0.16635859 -0.28059724 0.20803015 -0.02805549
-0.24110559 0.119762234 0.03802109 0.3801382 -0.12711315 0.030605398 -0.13709047 0.19088979
0.324915 -0.10770458 0.03839604 0.20061241 -0.29713243 -0.25668222 -0.27806175 0.25040773
-0.059169713 0.027678298 -0.28906474 0.05712525 -0.122803174 -0.2519994 0.35177952 0.043566793
0.2838851 -0.11474453 0.15158024 -0.12898338 -0.3637678 -0.2927361 0.37555632 -0.23904331
-0.16636068 -0.21835223 0.3377566 -0.28214216 0.0958153 0.093420446 -0.33264476 0.33813807
-0.35995966 0.018388934 0.025274346 0.0069698845 0.3748777 -0.35746494 0.09028005 -0.27663043
-0.15804932 -0.31564108 0.35325664 -0.20516437 -0.035168916 0.14233392 -0.33336756 0.207388
-0.13361278 -0.1410062 -0.13056797 0.3141473 -0.15807024 0.04673999 0.3713554 -0.1121423
-0.36332545 -0.16383599 -0.24934989 -0.21644889 -0.119820766 -0.19087149 0.1300987 -0.375736
0.29723376 -0.22739324 0.015720367 -0.19488247 0.3502807 0.055060405 -0.11901492 0.11498041
0.37092838 0.24166389 -0.06977681 0.1335737 0.28336856 -0.0922633 -0.011591833 -0.30806592
00000000: ccd6 9a3e 759e 2ebe d1fd 3abd 9b3f 8f3e
00000010: 6ea1 81bd 0256 58be 0fdb 2d3d 7f2c 28be
00000020: 3490 42bb ea3d adbe e419 b03e 0edf 5c3e
00000030: 630e a4be 2f1b b5be b1d2 e0bd f65b 223e
00000040: bc4e 9e3e 7e34 9b3e d644 9e3e b760 373e
00000050: 2e24 c83e 9039 9cbe 1566 1f3e 570c 313e
00000060: eb83 90be 0397 6d3c 1a8c b83d 282f a43e
00000070: 0a7e 973c d5d8 4ebe 2315 a9be 7b97 ca3e
00000080: 9f7b c8be 4b2a 8d3d ee1e 7fbe d68e 6e3d
00000090: 41c8 2fbd 35cb abbe ff67 c3be 0dd9 083e
000000a0: 2b3a 17be a9f2 963d c032 91bd 922f b33e
000000b0: 7f73 c5be 465d 9abe e9e4 64be 26ba 20be
000000c0: 6d78 bfbe 1650 ae3e 03e2 813e a17e a43e
000000d0: a7c0 9ebe 6a0b 91be b587 b13e 3477 0dbe
000000e0: 9c4e be3e ad29 0b3e 671e 9a3d 77ae 6c3e
000000f0: 3348 903e 8b25 a3be 0c07 9e3e f467 c23e
00000100: 0dfa 303e eae0 893e 03cd a33e 9bb7 7bbe
00000110: fb60 c3be 4f57 a4be 72dc 863e dd1a 583e
00000120: 5423 bc3e 2762 69be d37f c33d a81f 593e
00000130: 80ca c9bc 71d6 853d 4a59 1cbe ce70 8f3c
00000140: 7586 c8bd f022 973e 2a08 3ebd db53 683d
00000150: d0c5 b2be 06a0 4fbd 6041 53be 8cfe cabe
00000160: b652 7d3d 4252 69be 5370 433e 2367 c1be
00000170: 5287 593c dfc2 05bd 5479 5c3e 2ee1 253c
00000180: 4cc1 9bbe 589f d9b9 6907 96be 92fd 70be
00000190: e859 2a3e 71aa 8fbe db05 553e a1d4 e5bc
000001a0: 62e4 76be e745 f53d 01bc 1b3d 79a1 c23e
000001b0: f329 02be 2cb8 fa3c 7261 0cbe 9d78 433e
000001c0: 425b a63e 3894 dcbd 2b45 1d3d 576d 4d3e
000001d0: be21 98be da6b 83be 1c5e 8ebe 7135 803e
000001e0: f15b 72bd 99bd e23c 4b00 94be 2bfc 693d
000001f0: 3b80 fbbd 1106 81be 721c b43e 1873 323d
00000200: 6359 913e 2eff eabd da37 1b3e 3814 04be
00000210: c63f babe 82e1 95be eb48 c03e c5c7 74be
00000220: 745a 2abe ba97 5fbe 6fee ac3e f074 90be
00000230: d03a c43d 3853 bf3d 6a50 aabe 6f20 ad3e
00000240: a24c b8be 64a4 963c 250c cf3c a163 e43b
00000250: f8ef bf3e a505 b7be bfe4 b83d 81a2 8dbe
00000260: aed7 21be b59b a1be 0ede b43e 9c16 52be
00000270: 480d 10bd fcbf 113e 27af aabe 855d 543e
00000280: cad1 08be ee63 10be 9cb3 05be ead7 a03e
00000290: 2add 21be 6f72 3f3d 4c22 be3e ddaa e5bd
000002a0: cb05 babe 9fc4 27be 9455 7fbe c7a4 5dbe
000002b0: 9764 f5bd d173 43be 9838 053e 7860 c0be
000002c0: 062f 983e c6d9 68be 00c8 803c 458f 47be
000002d0: fe57 b33e 0587 613d 18be f3bd d97a eb3d
000002e0: 53ea bd3e bd76 773e 25e7 8ebd 8bc7 083e
000002f0: af15 913e 8bf4 bcbd aceb 3dbc d1ba 9dbe

od_conv.0.weight_u f4 [32]
0.09767518 0.11604062 0.047707673 0.1900955 -0.114537515 -0.28780568 -0.010865819 -0.2510031
-0.23805436 0.29650414 0.33157724 0.15224114 0.22469614 -0.05301569 -0.2258225 0.17424902
-0.22823982 0.13384403 -0.058169916 -0.072174884 -0.15131067 0.15407357 -0.0813445 0.2482085
-0.1721443 0.03202129 -0.14175795 -0.1268464 -0.21628946 0.12657253 0.19558865 -0.076077245
00000000: ed09 c83d b4a6 ed3d 1f69 433d 65a8 423e
00000010: a592 eabd 445b 93be 8c06 32bc 7a83 80be
00000020: 86c4 73be 64cf 973e 7ec4 a93e 1ae5 1b3e
00000030: bf16 663e fb26 59bd 033e 67be 566e 323e
00000040: b3b7 69be 690e 093e 9443 6ebd 6dd0 93bd
00000050: 2ff1 1abe 76c5 1d3e f297 a6bd 5e2a 7e3e
00000060: 9846 30be c228 033d ff28 11be 06e4 01be
00000070: fc7a 5dbe 3b9c 013e 6448 483e 63ce 9bbd

od_conv.0.weight_v f4 [6]
0.68714863 -0.39137998 0.36455598 0.10957024 0.20205376 0.4346448
00000000: f9e8 2f3f f562 c8be 15a7 ba3e 5d66 e03d
00000010: 2ee7 4e3e c389 de3e

od_conv.2.bias f4 [64]
-0.046178702 -0.09032509 0.012453032 -0.047808524 -0.08433106 -0.07374842 0.075430505 -0.072034046
-0.059350044 0.071228735 -0.1007458 -0.011267655 -0.03908875 -0.096492015 0.029374594 -0.089878336
-0.038863793 0.078233026 -0.015341588 0.10149446 -0.08984641 -0.08160608 -0.04112715 -0.09607806
-0.0070067625 -0.09514613 -0.024872515 0.09221637 0.06767607 -0.07255431 -0.011089046 -0.06717132
0.023334539 0.047571465 -0.054996606 -0.047346245 -0.07071109 -0.002357507 0.047363136 0.006477138
0.057584394 0.04753822 0.029579552 0.02265703 0.048259553 -0.005985673 0.029116891 -0.054919332
-0.04824591 -0.027466761 -0.048499946 -0.058024842 -0.023499513 -0.01606724 -0.043790486 0.048329268
0.06367261 -0.0697273 -0.0053545358 0.06313796 -0.04279078 -0.01678556 0.019062184 -0.094543695
00000000: e125 3dbd 5cfc b8bd cd07 4c3c dfd2 43bd
00000010: c3b5 acbd 6909 97bd 4f7b 9a3d 9686 93bd
00000020: 0819 73bd 5fe0 913d d053 cebd f89b 38bc
00000030: 861b 20bd 9b9d c5bd fda2 f03c 2212 b8bd
00000040: a42f 1fbd a338 a03d 495b 7bbc 54dc cf3d
00000050: 6501 b8bd 1721 a7bd f174 28bd 93c4 c4bd
00000060: fc98 e5bb f9db c2bd 72c1 cbbc f0db bc3d
00000070: c099 8a3d 5b97 94bd d4ae 35bc 1e91 89bd
00000080: 1328 bf3c 4cda 423d 1f44 61bd 23ee 41bd
00000090: fad0 90bd 6780 1abb d9ff 413d 2c3e d43b
000000a0: 9ddd 6b3d 70b7 423d d150 f23c 3c9b b93c
000000b0: cfab 453d 7723 c4bb 8c86 ee3c 18f3 60bd
000000c0: 819d 45bd f901 e1bc e1a7 46bd 75ab 6dbd
000000d0: 0d82 c0bc 729f 83bc a75d 33bd e9f4 453d
000000e0: c966 823d 30cd 8ebd 1a75 afbb 7a4e 813d
000000f0: 6345 2fbd df81 89bc 4c28 9c3c 20a0 c1bd

od_conv.2.weight_orig f4 [64, 32, 3]
-0.0495999 0.06001985 0.048239008 -0.056563508 -0.040006943 -0.052898925 -0.018453293 -0.09178837
0.02231621 0.031284068 0.020990815 0.073252976 0.042289812 0.020094445 -0.09198057 -0.09688323
0.0070348056 -0.042877752 0.0062682284 -0.06013435 -0.07644071 0.095151104 0.074682415 -0.03925944
0.08501171 -0.0270905 0.035386242 -0.03281204 -0.071846105 -0.08320654 0.025629038 0.09489767
0.032662403 -0.038846724 -0.044868015 0.048724126 0.094127685 -0.08237853 0.062828235 0.06701315
-0.011792412 -0.013708583 -0.08043457 0.10285393 -0.03926867 -0.05957059 -0.0355409 0.046914965
-0.026268257 0.09406918 -0.05887609 0.027383618 0.030204423 0.09065198 -0.07848142 0.037235364
0.07829735 -0.04596318 0.076982796 0.079597145 -0.045835596 -0.069676585 0.01518434 0.09593787
0.022537772 0.08883529 0.1006682 -0.103444606 0.0033737465 -0.08317303 0.026710588 -0.023592917
0.04990429 -0.065376915 -0.038369104 0.08700845 0.019535461 -0.03772331 0.0039307037 -0.012620145
0.017024724 -0.04261891 -0.038258903 0.08572072 0.062470518 0.035995882 -0.04689283 -0.0115733715
-0.023486476 0.102209486 -0.011201754 -0.00522066 0.09787388 -0.090919785 0.10134455 -0.03648568
-0.08283112 0.09488367 -0.0756065 -0.08989553 -0.057823163 -0.0024583195 0.060060173 0.008211517
-0.06708415 0.030334188 0.05822694 -0.061030213 0.055143703 0.018140592 0.09339236 -0.015783615
-0.0733051 -0.10531114 -0.0809354 -0.018849907 -0.034848742 0.0924956 -0.0034206174 -0.076241136
-0.048841473 -0.030124338 0.06892764 -0.018172616 0.085708685 0.02071301 -0.09622705 -0.06389341
0.062403187 -0.027867356 -0.021164427 0.053386036 -0.05171515 -0.09895284 0.016705375 0.0548135
-0.057418063 0.060408253 -0.081602536 0.043281797 0.093593396 -0.039350282 0.04443664 -0.05068405
-0.059764806 0.09703511 0.0928619 -0.03850323 0.070993826 0.04733668 -0.027212959 0.012117276
0.015787091 0.09590449 -0.090030834 0.003639815 -0.03529931 0.039430328 -2.295448e-05 -0.043029603
-0.06746759 -0.10126146 -0.025029553 0.034267474 -0.09383505 0.08126025 -0.06924348 -0.055884145
0.0003553402 0.054995283 -0.06394752 0.025018789 0.02715837 -0.046354946 0.033619147 0.0778185
-0.07031591 0.04669114 0.03137597 0.0060844696 0.07592634 0.075336464 0.04741476 0.08384386
-0.041649424 0.014512345 0.10063016 0.020068388 -0.070602305 -0.09968897 -0.054727584 -0.072369486
0.033214316 -0.06640591 0.084942654 0.08349953 0.06515292 0.042191736 0.05198817 0.08432639
0.07585837 0.015831778 -0.056570787 0.07357684 -0.057874344 -0.023468368 -0.02019714 0.0006988024
-0.031026268 0.076795764 0.00464771 0.097911924 0.06922262 0.048447456 0.040977187 -0.003045451
-0.012215868 -0.04427093 0.006969857 -0.08058132 0.008035307 0.034840446 -0.05498914 0.04242101
-0.028560704 0.085776664 -0.07709648 0.023787586 0.094254054 -0.063490234 -0.009941731 0.099501
-0.05793534 0.038454212 -0.083820835 0.099319465 -0.05666189 -0.010647928 -0.044624746 -0.090859756
0.033429377 -0.0386051 0.08886063 -0.04817899 -0.055955376 -0.10243291 0.047310136 -0.0698121
-0.081203766 0.08138814 0.06934697 0.030233866 -0.016044796 0.061081585 0.09604957 -0.091247916
00000000: 4429 4bbd 60d7 753d 4496 453d 23af 67bd
00000010: 52de 23bd 8bac 58bd 5c2b 97bc 8afb bbbd
00000020: 7cd0 b63c b923 003d eef4 ab3c a805 963d
00000030: 1538 2d3d 1b9d a43c 4f60 bcbd b76a c6bd
00000040: 3a84 e63b 95a0 2fbd b665 cd3b 704f 76bd
00000050: f28c 9cbd 95de c23d 18f3 983d 82ce 20bd
00000060: 9f1a ae3d e5ec ddbc 2af1 103d eb65 06bd
00000070: 0d24 93bd 3168 aabd fdf3 d13c b659 c23d
00000080: 03c9 053d be1d 1fbd 86c7 37bd f392 473d
00000090: 04c6 c03d 13b6 a8bd 17ac 803d 313e 893d
000000a0: f634 41bc f799 60bc e1ba a4bd 15a5 d23d
000000b0: 2fd8 20bd 4a00 74bd 5693 11bd e829 403d
000000c0: 8730 d7bc 58a7 c03d 0e28 71bd 9c53 e03c
000000d0: 446f f73c bfa7 b93d deba a0bd 1c84 183d
000000e0: 5c5a a03d e343 3cbd 28a9 9d3d d403 a33d
000000f0: 1bbe 3bbd 99b2 8ebd bdc7 783c 137b c43d
00000100: 22a1 b83c 47ef b53d 212b ce3d c4da d3bd
00000110: 131a 5d3b 9f56 aabd 2ad0 da3c ef45 c1bc
00000120: 7168 4c3d 55e4 85bd ec28 1dbd 7c31 b23d
00000130: d508 a03c c283 1abd 22cd 803b bac4 4ebc
00000140: 6f77 8b3c 2b91 2ebd 5eb5 1cbd 588e af3d
00000150: 16e1 7f3d 6b70 133d b212 40bd 3d9e 3dbc
00000160: b666 c0bc 3553 d13d 9087 37bc 1212 abbb
00000170: 1a72 c83d 2734 babd bb8d cf3d 0272 15bd
00000180: 5da3 a9bd 5f52 c23d 95d7 9abd 261b b8bd
00000190: fbd7 6cbd c21b 21bb a801 763d 9989 063c
000001a0: 6a63 89bd 677f f83c 5f7f 6e3d d1fa 79bd
000001b0: 5dde 613d 949b 943c 7e44 bf3d a44c 81bc
000001c0: fc20 96bd 5ead d7bd 76c1 a5bd 1f6b 9abc
000001d0: 8ebd 0ebd 556e bd3d 702c 60bb 5024 9cbd
000001e0: ff0d 48bd 51c7 f6bc ef29 8d3d bdde 94bc
000001f0: 0988 af3d 55ae a93c b012 c5bd 8cda 82bd
00000200: 7c9a 7f3d 154a e4bc 0561 adbc 51ab 5a3d
00000210: 44d3 53bd c9a7 cabd b6d9 883c 1f84 603d
00000220: 342f 6bbd a56e 773d 3b1f a7bd 4148 313d
00000230: e5ad bf3d c32d 21bd 3203 363d 149a 4fbd
00000240: f1cb 74bd 58ba c63d 612e be3d 90b5 1dbd
00000250: 3665 913d 1be4 413d b6ed debc 8a87 463c
00000260: ee53 813c 9369 c43d 1662 b8bd f689 6e3b
00000270: 0296 10bd b281 213d 5f8e c0b7 cf3f 30bd
00000280: 732c 8abd 2b62 cfbd c70a cdbc 0d5c 0c3d
00000290: 972c c0bd c66b a63d 87cf 8dbd c6e6 64bd
000002a0: f44c ba39 bc42 613d ebf6 82bd 34f4 cc3c
000002b0: 3b7b de3c afde 3dbd 3bb4 093d 4e5f 9f3d
000002c0: ca01 90bd 353f 3f3d 1784 003d 3b60 c73b
000002d0: 457f 9b3d 014a 9a3d fb35 423d 54b6 ab3d
000002e0: 9698 2abd 30c5 6d3c 2f17 ce3d 7666 a43c
000002f0: f197 90bd bb29 ccbd 082a 60bd 7436 94bd
00000300: bc0b 083d d2ff 87bd 6af6 ad3d cd01 ab3d
00000310: e56e 853d 3ed1 2c3d 8cf1 543d 50b3 ac3d
00000320: a25b 9b3d a5b1 813c c5b6 67bd 74af 963d
00000330: a60d 6dbd bc40 c0bc 7974 a5bc d62f 373a
00000340: cd2a febc 1947 9d3d d14b 983b 0c86 c83d
00000350: 97c4 8d3d d770 463d b2d7 273d 3096 47bb
00000360: 1025 48bc 6f55 35bd 6663 e43b d207 a5bd
00000370: 85a6 033c dbb4 0e3d 4b3c 61bd a7c1 2d3d
00000380: 23f8 e9bc adab af3d c2e4 9dbd 2fde c23c
00000390: 4508 c13d 2b07 82bd a4e2 22bc 2ec7 cb3d
000003a0: 9b4d 6dbd 2a82 1d3d 42aa abbd 0168 cb3d
000003b0: 4c16 68bd a674 2ebc 70c8 36bd ae14 babd
000003c0: 3eed 083d 6220 1ebd 90fc b53d 5557 45bd
000003d0: 7731 65bd 58c8 d1bd 46c8 413d a5f9 8ebd
000003e0: 294e a6bd d3ae a63d c905 8e3d 03ad f73c
000003f0: 6070 83bc af30 7a3d a3b5 c43d 30e0 babd

od_conv.2.weight_u f4 [64]
-0.08277872 0.15019421 -0.15004236 0.14709787 -0.15565237 -0.05090164 -0.24337794 -0.15393132
-0.0076369517 0.092269436 0.13844791 0.049199622 0.063576594 0.17741138 0.08774486 -0.0487402
-0.06487726 -0.0869689 0.036912214 0.18143152 -0.041491214 0.10039422 -0.011475235 0.037818544
-0.13139194 -0.08456224 0.110739164 0.11280039 0.085753575 -0.14001179 -0.041333996 0.15867825
-0.03899302 -0.121650755 -0.053938307 -0.03141708 0.17061569 0.32813746 0.070572525 0.14927164
0.18378131 -0.09015222 -0.14230146 0.050016005 -0.094890945 0.07091695 0.13790159 -0.09850641
0.024546096 0.11093269 -0.04574405 0.1867425 0.020623669 0.10345543 0.08409249 -0.24295862
-0.12309463 -0.10577113 0.21317798 0.22452898 -0.05483918 0.14923155 0.10366025 -0.035858553
00000000: e487 a9bd 83cc 193e b4a4 19be d3a0 163e
00000010: 5663 1fbe 3d7e 50bd 1138 79be 2ca0 1dbe
00000020: 653f fabb c2f7 bc3d 4ac5 0d3e 8b85 493d
00000030: 7234 823d 54ab 353e 94b3 b33d cea3 47bd
00000040: 5ede 84bd c01c b2bd 4331 173d 2fc9 393e
00000050: b1f2 29bd 7c9b cd3d a002 3cbc 9ee7 1a3d
00000060: 9c8b 06be f82e adbd 37cb e23d e403 e73d
00000070: 929f af3d 405f 0fbe d64d 29bd 8d7c 223e
00000080: 25b7 1fbd 0824 f9bd 6aee 5cbd 32af 00bd
00000090: e1b5 2e3e a201 a83e 5488 903d aada 183e
000000a0: 2b31 3c3e baa1 b8bd 79b7 11be 95dd 4c3d
000000b0: 2f56 c2bd e83c 913d 1336 0d3e bbbd c9bd
000000c0: e514 c93c ae30 e33d 1d5e 3bbd 6d39 3f3e
000000d0: f8f2 a83c 71e0 d33d af38 ac3d 25ca 78be
000000e0: 0a19 fcbd 899e d8bd 544b 5a3e edea 653e
000000f0: 0c9f 60bd 28d0 183e d34b d43d 6be0 12bd

od_conv.2.weight_v f4 [96]
0.023576494 0.14047141 -0.07034397 0.0128877945 -0.12575574 -0.046063498 0.013119427 0.010789107
-0.09160142 -0.12553063 0.015095775 -0.049985055 0.1562391 0.13050072 0.17669417 0.12426111
0.062223155 -0.177636 -0.08352256 -0.0047168923 -0.07055929 0.08996881 -0.01791811 -0.035908364
-0.046565194 -0.028138751 0.20789222 0.20295565 -0.09961574 0.15060212 -0.08966052 -0.011914644
0.032501955 0.08863982 0.13860567 0.06511873 0.002002584 0.017730312 -0.13900867 -0.04684992
-0.10451318 -0.0036790783 0.14341384 -0.045758076 0.042657103 -0.16569138 0.023427943 0.06816642
-0.030623712 0.075990535 -0.010541496 -0.09903521 -0.10670474 0.12156413 -0.115452304 0.11146156
-0.09992799 0.039926346 -0.20121436 0.17753083 -0.017770462 -0.050856758 0.036764417 0.10711136
0.08444696 -0.052479178 -0.06948192 0.088109754 0.10057761 0.20249751 0.015723336 0.04587412
-0.116881564 0.028547859 -0.05876786 -0.2388832 0.106678136 -0.0848654 0.17112148 0.15640391
-0.001313564 0.1638845 -0.1137985 -0.10248269 -0.0712934 -0.009249131 0.19701234 -0.052186053
0.019817444 -0.033435713 0.1371815 -0.00373845 0.045959055 0.04647035 -0.13296597 -0.058472525
00000000: 7e23 c13c bdd7 0f3e 8010 90bd 5427 533c
00000010: 1dc6 00be 14ad 3cbd ddf2 563c cbc4 303c
00000020: 8699 bbbd 1a8b 00be 4554 773c 21bd 4cbd
00000030: 25fd 1f3e fba1 053e 51ef 343e 9c7c fe3d
00000040: b5dd 7e3d 36e6 35be e00d abbd 2990 9abb
00000050: 6481 90bd 9141 b83d 00c9 92bc a614 13bd
00000060: 25bb 3ebd 3d83 e6bc b3e1 543e 9bd3 4f3e
00000070: 5603 ccbd 7137 1a3e ef9f b7bd a435 43bc
00000080: c520 053d cb88 b53d a5ee 0d3e f85c 853d
00000090: c93d 033b 293f 913c 4a58 0ebe b4e5 3fbd
000000a0: 020b d6bd b11c 71bb 14db 123e d26c 3bbd
000000b0: 37b9 2e3d 00ab 29be f5eb bf3c d69a 8b3d
000000c0: 94de fabc eda0 9b3d 3db6 2cbc f9d2 cabd
000000d0: 0488 dabd 9df6 f83d 4272 ecbd f545 e43d
000000e0: 0ca7 ccbd cf89 233d 230b 4ebe a4ca 353e
000000f0: 5c93 91bc 2d4f 50bd 4996 163d 335d db3d
00000100: 87f2 ac3d 68f4 56bd 894c 8ebd e372 b43d
00000110: a2fb cd3d 825b 4f3e 3ace 803c 80e6 3b3d
00000120: 9a5f efbd 33dd e93c 91b6 70bd cc9d 74be
00000130: 117a da3d e9cd adbd 783a 2f3e 5928 203e
00000140: e52b acba 57d1 273e 300f e9bd 72e2 d1bd
00000150: 4602 92bd ab89 17bc 9abd 493e 0bc1 55bd
00000160: 3158 a23c e3f3 08bd 4f79 0c3e c800 75bb
00000170: 903f 3c3d b257 3e3d 3b28 08be e380 6fbd

fc.0.weight f4 [128, 1024]
0.009586194 0.03184904 -0.0025110333 0.0077265725 -0.018827239 -0.01247352 0.008344002 0.018607834
0.011176027 -0.00778656 0.011850948 -0.020072464 0.0050926986 0.03163159 0.017099913 -0.028919913
0.017585032 0.020982627 0.015544555 0.0044834996 0.028508268 0.019056119 -0.0077194166 -0.004029878
-0.0021874176 -0.018098399 0.005610348 -0.009903205 -0.01638476 0.005011425 0.0067010196 -0.024811303
-0.0076824673 0.027314354 0.007538392 -0.0036554122 0.028971452 -0.0041951914 0.018980866 -0.01758477
0.007862326 -0.02585787 -0.018768923 -0.030967962 -0.024655303 0.027513474 -0.025152883 0.0055824094
-0.0066701816 -0.008125231 0.023322413 0.0060567386 0.027992005 0.015730457 -0.028286893 -0.015367332
-0.013822517 0.005163988 0.0049635214 -0.006046536 -0.024460016 0.0084036635 0.017859645 -0.023490887
-0.02139511 0.007894169 0.011530156 -0.027017351 -0.00440141 -0.02859858 0.028554277 0.020735875
0.026919072 0.018885637 -0.017719971 0.029531416 0.029781489 0.027137596 0.014273378 -0.018330386
0.02624391 -0.021070374 0.018599825 -0.013995699 0.015487214 0.0059673754 0.016840346 -0.006446591
0.03219881 0.019482657 -0.014633159 -0.025024079 -0.033875488 0.026725942 -0.016451836 0.02651179
0.016730096 -0.015293101 0.014213111 0.019671688 -0.026566494 0.030530242 0.0073014493 0.019583521
-0.021641752 0.029270396 0.004068831 -0.0021942095 -0.017921204 -0.0211912 -0.008261301 -0.017394483
-0.026818182 0.017476508 0.023824377 0.0049183276 -0.021242956 0.028681938 -0.0014323182 0.015158559
0.02420356 -0.02104348 -0.016820649 0.031887237 0.0047062538 -0.03393477 0.0069238683 -0.0023052103
-0.013058457 -0.01018444 0.02175937 -0.010579012 -0.022553755 -0.007960127 0.003200193 0.023553584
0.026084697 -0.018687982 0.022250773 0.0013303236 0.024600515 -0.0016531801 0.015091337 -0.016413987
0.0055562356 0.02602421 -0.021935398 -0.0004083315 -0.009963872 -0.0037224102 -0.0069114375 -0.023529368
0.0053531267 -0.008739739 0.02606228 -0.0018574876 0.011162297 0.0050633997 -0.015427541 -0.010338689
-0.006916102 0.003993142 0.015754117 -0.02750723 0.0156178875 -0.0010767909 -0.008016589 0.021041263
-0.013828581 0.02022184 -0.0075060814 -0.0030515098 -0.025837522 0.023615062 0.012906755 -0.02705836
-0.00067907874 -0.027270045 0.030993147 -0.022215107 -0.01531797 0.020396706 -0.008133226 -0.022996327
-0.003386025 -0.004690631 0.013244526 -0.0060915533 -0.0057867626 -0.0011492948 0.01721953 -0.023902513
0.022703713 -0.013221265 -0.0022220053 -0.0012328771 -0.023187654 -0.011257252 -0.02823703 0.022167845
0.019038543 -0.020261208 0.02960956 -0.024889996 -0.030487396 -0.005900673 -0.0022876165 -0.014185311
-0.024256084 0.015759155 -0.0026320163 -0.024470842 -0.004397042 -0.0062409914 0.007981482 -0.021947365
0.029116249 -0.029138027 -0.030510506 0.005283874 0.023408597 0.01609204 -0.030165045 0.027382601
-0.0007291478 0.019437313 0.02009287 -0.00500133 0.019782325 0.012415834 -0.012867089 0.027132135
-0.011341288 0.02383939 -0.008712357 -0.028622482 -0.007891049 -0.011372421 0.022810262 0.028058255
-0.011227363 -0.02620773 0.017256476 -0.008503153 0.030046828 0.0025072568 -0.0247148 0.007894954
-0.014196497 0.0018821862 0.029465342 -0.0046491176 -0.032223277 0.01688385 -0.0051474464 0.00072870567
00000000: 690f 1d3c 2474 023d 2690 24bb 302f fd3b
00000010: 953b 9abc bc5d 4cbc 48b5 083c 756f 983c
00000020: a81b 373c 6626 ffbb 7b2a 423c 026f a4bc
00000030: a7e0 a63b 2090 013d 1e15 8c3c 74e9 ecbc
00000040: 7c0e 903c c2e3 ab3c 97ae 7e3c 52ea 923b
00000050: 2c8a e93c 941b 9c3c 29f3 fcbb 110d 84bb
00000060: c75a 0fbb 1843 94bc 03d7 b73b 0d41 22bc
00000070: 5539 86bc e136 a43b 3a94 db3b 1341 cbbc
00000080: 35bd fbbb 5ac2 df3c 9e04 f73b a48f 6fbb
00000090: 8a55 ed3c d177 89bb c37d 9b3c f00d 90bc
000000a0: fcd0 003c e2d3 d3bc 49c1 99bc 86b0 fdbc
000000b0: ebf9 c9bc f063 e13c 6b0d cebc a5ec b63b
000000c0: 8a91 dabb b01f 05bc a50e bf3c 9b77 c63b
000000d0: 7d4f e53c 29dd 803c eab9 e7bc 43c7 7bbc
000000e0: d777 62bc ac36 a93b 09a5 a23b 0522 c6bb
000000f0: 5f60 c8bc 85af 093c 644e 923c f66f c0bc
00000100: cc44 afbc 8b56 013c fbe8 3c3c 7e53 ddbc
00000110: b439 90bb 9247 eabc a9ea e93c 48de a93c
00000120: 6385 dc3c 0db6 9a3c 7929 91bc deeb f13c
00000130: 4ff8 f33c aa4f de3c e3da 693c 9b29 96bc
00000140: 78fd d63c c79b acbc a95e 983c 374e 65bc
00000150: 15be 7d3c f989 c33b c4f4 893c ed3d d3bb
00000160: e6e2 033d 189a 9f3c ebbf 6fbc 4cff ccbc
00000170: 06c1 0abd 5df0 da3c 00c6 86bc 412f d93c
00000180: 8e0d 893c ea8f 7abc 1cde 683c 8526 a13c
00000190: faa1 d9bc 8f1a fa3c ff40 ef3b 9f6d a03c
000001a0: 0b4a b1bc 78c8 ef3c d453 853b bacc 0fbb
000001b0: 7dcf 92bc 2b99 adbc 685a 07bc e07e 8ebc
000001c0: ceb1 dbbc e52a 8f3c 572b c33c ec29 a13b
000001d0: b505 aebc 62f6 ea3c a0bc bbba 9b5b 783c
000001e0: 8b46 c63c 6063 acbc 75cb 89bc 319c 023d
000001f0: eb36 9a3b 2fff 0abd 9ee1 e23b 0313 17bb
00000200: 23f3 55bc a3dc 26bc b540 b23c 9853 2dbc
00000210: a7c2 b8bc 316b 02bc 54ba 513b 72f3 c03c
00000220: 93af d53c 8a17 99bc 4147 b63c 415e ae3a
00000230: 0587 c93c 85af d8ba a841 773c a076 86bc
00000240: 1511 b63b b930 d53c ddb1 b3bc 5415 d6b9
00000250: 823f 23bc aef3 73bb 5779 e2bb a9c0 c0bc
00000260: 4869 af3b 1f31 0fbc 9080 d53c f176 f3ba
00000270: 11e2 363c e0ea a53b ccc3 7cbc 9b63 29bc
00000280: 78a0 e2bb e7d8 823b c70e 813c d856 e1bc
00000290: 2be2 7f3c 1b23 8dba 0358 03bc ba5e ac3c
000002a0: 4691 62bc 46a8 a53c 93f5 f5bb d7fb 47bb
000002b0: 36a9 d3bc 6074 c13c db76 533c 7ea9 ddbc
000002c0: 3404 32ba 6e65 dfbc 57e5 fd3c 75fc b5bc
000002d0: 39f8 7abc fe16 a73c 3941 05bc cb62 bcbc
000002e0: 13e8 5dbb ddb3 99bb 92ff 583c a79b c7bb
000002f0: e29e bdbb efa3 96ba f90f 8d3c 34cf c3bc
00000300: 23fd b93c 019e 58bc 109f 11bb 7e98 a1ba
00000310: 09f4 bdbc 5670 38bc 5851 e7bc 5799 b53c
00000320: b8f6 9b3c d5fa a5bc bf8f f23c 1be6 cbbc
00000330: b4c0 f9bc 6f5a c1bb d6eb 15bb 8269 68bc
00000340: b2b4 c6bc 5819 813c e87d 2cbb 1377 c8bc
00000350: 1015 90bb 3b81 ccbb c3c4 023c f6ca b3bc
00000360: 3385 ee3c dfb2 eebc 2bf1 f9bc 5924 ad3b
00000370: 63c3 bf3c 74d3 833c af1c f7bc 7a51 e03c
00000380: 4824 3fba 003b 9f3c cd99 a43c 32e2 a3bb
00000390: 8b0e a23c c86b 4b3c 7cd0 52bc 3644 de3c
000003a0: cfd0 39bc d34a c33c 46be 0ebc b279 eabc
000003b0: 7549 01bc 6453 3abc 96dc ba3c 6dda e53c
000003c0: f9f2 37bc 98b1 d6bc 745d 8d3c cf50 0bbc
000003d0: c424 f63c ca50 243b b176 cabc d659 013c
000003e0: 6d98 68bc b0b3 f63a 4d61 f13c a057 98bb
000003f0: 8efc 03bd 0050 8a3c e9ab a8bb 9c06 3f3a

fc.0.bias f4 [128]
-0.015859298 -0.0001764042 -0.0081097325 0.02630264 0.013026851 -0.014014528 0.020002825 0.0012471928
-0.029380253 0.018498693 -0.0022910163 0.029262073 -0.015426337 0.023431692 0.0019583723 0.0127510335
-0.018561963 -0.011841038 0.023051642 -0.0046926285 -0.011132775 0.009817603 -0.027946278 0.011926106
0.0043910337 0.022170842 -0.01656328 -0.026803268 -0.017290285 -0.026293986 0.0042508114 -0.024550982
0.024725147 0.008940752 0.03070732 -0.0151518695 -0.015735684 0.021291967 0.019220069 -0.026265474
0.019533906 0.024955668 0.028523544 0.006237342 -0.0012240516 -0.027478533 0.025806593 0.011519416
-0.022205718 -0.023258906 -0.020276178 -0.0015067033 0.01787899 -0.025384285 0.02483106 -0.030313691
-0.019812785 -0.024847036 0.0014800307 -0.0048460197 0.030650575 0.010553978 0.0034336862 -0.018545732
-0.027508922 0.028619537 -0.020457726 -0.015445515 -0.006844097 0.020827007 -0.022537759 -0.0078100148
0.006161746 -0.0037455834 -0.0016438068 -0.023668388 0.014563206 0.0084219575 -0.017406091 0.01515483
-0.005405073 0.0029708648 0.02812365 -0.031218661 0.026187511 0.0036826858 -0.017043827 0.003083054
-0.016470473 0.023011804 -0.021675821 0.022996262 -0.025715888 -0.026011977 -0.026067303 -0.026187614
-0.0058076833 0.025859836 0.00015621868 0.024879044 -0.016640859 -0.030506512 0.019697178 0.021813862
-0.026217075 -0.0077776047 -0.029881451 0.006948447 -0.024585672 0.024210414 -0.014241701 -0.02278789
0.017885061 0.012083936 -0.00084955327 -0.014916615 -0.01265878 -0.0036404638 -0.009981662 0.0013762873
0.004402206 0.02482122 -0.023511477 -0.0062762285 0.0076117576 0.010787772 -0.013489556 0.030039566
00000000: 5ceb 81bc 24f9 38b9 afde 04bc a278 d73c
00000010: 936e 553c 319d 65bc f7dc a33c d978 a33a
00000020: dbae f0bc 928a 973c e024 16bb 04b7 ef3c
00000030: bfbe 7cbc d2f3 bf3c 0958 003b b6e9 503c
00000040: 420f 98bc ea00 42bc ccd6 bc3c 9fc4 99bb
00000050: 3e66 36bc 03da 203c 98ef e4bc b765 433c
00000060: a9e2 8f3b a09f b53c b7af 87bc 8792 dbbc
00000070: 5ba4 8dbc 7c66 d7bc 644a 8b3b 241f c9bc
00000080: 648c ca3c 3b7c 123c eb8d fb3c 8c3f 78bc
00000090: 1fe8 80bc 7e6c ae3c 6873 9d3c b12a d7bc
000000a0: 9205 a03c d46f cc3c 35aa e93c 9e62 cc3b
000000b0: 5b70 a0ba a91a e1bc 5968 d33c efbb 3c3c
000000c0: c4e8 b5bc 7689 bebc 3a1a a6bc 937c c5ba
000000d0: f676 923c b4f2 cfbc 826a cb3c 6b54 f8bc
000000e0: 6c4e a2bc 038c cbbc 97fd c13a 5ccb 9ebb
000000f0: ea16 fb3c 98ea 2c3c b207 613b 38ed 97bc
00000100: 645a e1bc 8573 ea3c f696 a7bc 2f0f 7dbc
00000110: 7244 e0bb 669d aa3c 1ba1 b8bc 27eb ffbb
00000120: 79e8 c93b 7678 75bb 0175 d7ba 35e4 c1bc
00000130: 839a 6e3c 40fc 093c 3897 8ebc f74b 783c
00000140: 0a1d b1bb d7b2 423b 9263 e63c 47be ffbc
00000150: 3187 d63c 3759 713b 7f9f 8bbc 100d 4a3b
00000160: 16ed 86bc 4083 bc3c 7e91 b1bc a862 bc3c
00000170: 20aa d2bc 1217 d5bc 198b d5bc 6887 d6bc
00000180: 614e bebb 02d8 d33c a2ce 2339 23cf cb3c
00000190: 6952 88bc cbe8 f9bc fa5b a13c fcb2 b23c
000001a0: 31c5 d6bc 47db febb f2c9 f4bc ccaf e33b
000001b0: e467 c9bc eb54 c63c 0656 69bc abad babc
000001c0: b183 923c b3fb 453c 8eb4 5eba d164 74bc
000001d0: c666 4fbc d994 6ebb 208a 23bc 8a64 b43a
000001e0: 6140 903b df55 cb3c 249b c0bc d2a8 cdbb
000001f0: 0d6c f93b 32bf 303c 4c03 5dbc 8915 f63c

fc.2.weight f4 [1, 128]
0.07838973 0.073527835 0.03959176 0.018990511 0.031510945 0.021810766 -0.03644617 0.04320095
-0.048802026 0.0021862027 -0.016747752 0.051891837 0.023399156 -0.0065353573 -0.0049600527 -0.03957125
0.016383488 -0.018417988 0.026001189 0.034376945 0.070176974 0.021939537 0.03164452 -0.04155568
0.03246645 -0.04918783 0.061748818 0.010153473 0.0057543707 0.007906892 -0.06377759 -0.002854272
-0.059304584 -0.08790041 -0.056462266 -0.05208567 -0.07655276 0.04007571 -0.08131993 0.040836357
0.030829366 -0.070219964 0.06239274 -0.021278339 -0.03759921 0.025259351 0.086043105 0.044600975
0.017776515 0.015980206 0.03161227 0.056274448 -0.08822323 -0.025421945 0.05834701 -0.008461843
0.038317233 0.06133358 0.022266159 -0.025384739 -0.048467275 -0.03290852 0.07830621 -0.043980114
0.032070417 -0.06964827 -0.007253782 0.08281905 0.038526785 -0.0042157564 0.02656889 0.046959616
0.02720476 -0.07032401 0.07122688 -0.089681014 0.07039211 0.017606117 -0.081690714 -0.051649
-0.037536617 -0.013356042 0.032625616 -0.021102903 -0.07035679 -0.019297304 -0.058353156 -0.027291749
0.0078929 -0.07349839 -0.021235619 0.045216568 -0.05977644 -0.010622776 0.021646764 0.037707523
0.00022318136 -0.024375241 -0.03745248 -0.014646642 0.02188002 0.06592956 0.039397128 0.0027931079
0.07417466 0.06682351 0.05558705 -0.05080868 -0.008155485 -0.06306535 -0.08297681 0.0046847207
0.07860366 -0.052593477 -0.039365277 0.025782095 -0.02086778 -0.04676608 -0.007537671 -0.053941272
-0.08743487 0.08916364 -0.04182593 -0.049571373 0.008098663 -0.057125706 0.0057550543 -0.032734938
00000000: cb8a a03d c395 963d f82a 223d fd91 9b3c
00000010: 9f11 013d 7eac b23c 9448 15bd 7bf3 303d
00000020: a2e4 47bd 6546 0f3b 9532 89bc 898c 543d
00000030: 96af bf3c 8d26 d6bb f087 a2bb 7715 22bd
00000040: aa36 863c 52e1 96bc 7200 d53c d7ce 0c3d
00000050: f2b8 8f3d 8bba b33c af9d 013d 4a36 2abd
00000060: 8afb 043d 2e79 49bd 54ec 7c3d c15a 263c
00000070: 298f bc3b e98b 013c d39d 82bd bd0e 3bbb
00000080: 5de9 72bd 2105 b4bd fa44 67bd c957 55bd
00000090: b2c7 9cbd 6d26 243d 108b a6bd 0644 273d
000000a0: de8d fc3c 7ccf 8fbd 888f 7f3d e94f aebc
000000b0: a101 1abd b3ec ce3c 5e37 b03d 83af 363d
000000c0: 0ea0 913c ece8 823c de7b 013d 0980 663d
000000d0: 61ae b4bd af41 d0bc 46fd 6e3d 8ba3 0abc
000000e0: 88f2 1c3d ec38 7b3d 8567 b63c a8f3 cfbc
000000f0: 9f85 46bd 16cb 06bd 025f a03d 7e24 34bd
00000100: 455c 033d c1a3 8ebd 22b1 edbb 099d a93d
00000110: 43ce 1d3d 5424 8abb 00a7 d93c ba58 403d
00000120: 84dc de3c 0906 90bd 66df 913d aeaa b7bd
00000130: bd29 903d b43a 903c 764d a7bd e78d 53bd
00000140: ffbf 19bd 4dd3 5abc 70a2 053d ffdf acbc
00000150: 3917 90bd 6115 9ebc b803 6fbd f292 dfbc
00000160: 3951 013c 5386 96bd 52f6 adbc 0235 393d
00000170: 24d8 74bd 270b 2ebc 8e54 b13c 3473 1a3d
00000180: ca05 6a39 96ae c7bc c667 19bd 78f8 6fbc
00000190: ba3d b33c 1406 873d e25e 213d 930c 373b
000001a0: e2e8 973d c4da 883d 3faf 633d c31c 50bd
000001b0: 959e 05bc 6828 81bd bfef a9bd 4982 993b
000001c0: f5fa a03d 426c 57bd 7c3d 21bd f934 d33c
000001d0: e8f2 aabc ca8d 3fbd 91fe f6bb 86f1 5cbd
000001e0: 0e11 b3bd 6d9b b63d ab51 2bbd 5a0b 4bbd
000001f0: 41b0 043c a5fc 69bd e594 bc3b 1215 06bd
